Autencoder_Anomaly_Detection/cable_autoencoder-tflite.tflite (tflite, 62188 bytes, 18 tensors)

sequential/conv2d/BiasAdd/ReadVariableOp f4 [32]
000000 ed 10 ba bc e2 48 d1 bc ca 7b 62 3c 06 a2 b2 bc
       -0.022713149 -0.025547449 0.013823459 -0.021805774
000010 4a fd ea bc a6 06 8c bd ef fd ee bc 39 06 c6 bc
       -0.02868523 -0.068372056 -0.02917382 -0.02417289
000020 ab 8d 67 bc 3b d6 fb 3d af eb ed bc f9 2d 6f bd
       -0.014132897 0.122967206 -0.029043047 -0.058393452
000030 c5 18 90 3d 90 a6 90 bd d2 d8 32 3e a2 f6 11 bc
       0.070359744 -0.07063019 0.17465523 -0.0089088995
000040 f4 de 85 3d da ae 9e 3e ca 06 09 bd 96 31 9d 3d
       0.065366656 0.30992776 -0.03345374 0.076754734
000050 61 df fe bc d1 c7 94 bc b5 d2 91 bc 78 9d 12 3e
       -0.031112375 -0.018161686 -0.017800668 0.14317882
000060 a8 94 51 bd 04 6c 08 bd 97 d6 29 3b ca ae 25 bd
       -0.05116716 -0.033306137 0.002591526 -0.040449895
000070 19 7c ff 3d 45 7f 4b bc fa 4e 9b bd 23 6b 1b 3e
       0.124748416 -0.01242048 -0.07583423 0.15177588

sequential/conv2d_1/BiasAdd/ReadVariableOp f4 [16]
000000 98 6e 81 bc 2a 59 0f bc 9e c3 07 bc 21 05 5c bc
       -0.015799806 -0.008749286 -0.008286385 -0.013428957
000010 26 c2 5c bc fc 77 1d 3c 94 37 95 bc 43 82 80 bc
       -0.013474023 0.009611126 -0.018214978 -0.015687114
000020 5e b1 77 bc e6 11 a0 bc 5f 97 08 3b 40 be 3e bd
       -0.015117971 -0.019539785 0.0020842177 -0.046568155
000030 8b ea 5b bc 60 28 24 bc 08 ce 87 bc 6b 83 ee bb
       -0.013422619 -0.010019392 -0.016577736 -0.00727885

sequential/conv2d_2/BiasAdd/ReadVariableOp f4 [8]
000000 84 70 75 3b a8 b4 ba bc 5b 53 8e 3c d9 26 16 bd
       0.0037451098 -0.022791222 0.017373731 -0.03665814
000010 a8 ff 59 bd 24 90 25 3c 0a ea 40 3c ff 7f d5 3b
       -0.05322233 0.010105167 0.011774549 0.0065155025

sequential/conv2d_3/BiasAdd/ReadVariableOp f4 [2]
000000 e1 bb 00 3c 91 13 98 3b
       0.007857294 0.0046410044

sequential/conv2d_4/BiasAdd/ReadVariableOp f4 [2]
000000 44 a2 12 3c c0 5f f1 3c
       0.00894982 0.029464602

sequential/conv2d_5/BiasAdd/ReadVariableOp f4 [8]
000000 38 31 8e bb f1 a8 25 bd fc ad a7 bd e3 68 20 3b
       -0.0043393634 -0.04044432 -0.08187482 0.002447658
000010 52 b0 5a bd 97 bb cb bd 00 00 00 00 c5 82 b7 3e
       -0.05339081 -0.09947889 0.0 0.35841957

sequential/conv2d_6/BiasAdd/ReadVariableOp f4 [16]
000000 8a 9c 57 bb b5 8f a9 bd ea a1 90 bb 30 68 b6 39
       -0.00328997 -0.08279363 -0.004413833 0.0003479137
000010 3e fc a9 bc d8 39 5c 3c 08 2e fd 3c 45 7a d8 3b
       -0.020750161 0.013441525 0.030905738 0.0066063725
000020 bd 1e 11 3e eb ca 9c 3d 73 68 71 3e c0 65 76 3d
       0.14171882 0.07655891 0.23575 0.06015563
000030 83 32 1c 3e b7 ed e2 bd e6 1d f2 3d 52 3d e7 3e
       0.15253644 -0.11080497 0.11822109 0.4516397

sequential/conv2d_7/BiasAdd/ReadVariableOp f4 [32]
000000 a9 50 95 bc bf 56 7c bd 99 bf 79 3e 82 09 ab bd
       -0.018226938 -0.061606165 0.24389495 -0.08351423
000010 ea a9 85 3e 5c 1c b4 3d 06 53 27 3d 89 c4 3e bd
       0.26106197 0.087944716 0.04085066 -0.04657415
000020 1c ac 30 bd a0 77 73 3d 9f 4a 81 3e d9 e2 f7 3c
       -0.043132886 0.059440255 0.25252244 0.030259537
000030 e3 7e 82 3e ed 29 22 3d 14 6f 1d 3d 9a da 0e bd
       0.25487432 0.039590765 0.03843601 -0.034876443
000040 4c 90 19 bc 64 3a fe bd 5a 4e 2b 3e 07 4c d5 bd
       -0.009372782 -0.12413481 0.16729107 -0.10414892
000050 44 62 64 3a c3 f3 a2 bd 87 74 f7 3d 28 02 12 bd
       0.00087121525 -0.0795665 0.12082773 -0.035646588
000060 a1 07 dc 3d 2b 9c f9 bc 9a 81 41 3e 1a 0c 63 be
       0.107436426 -0.030469975 0.18897095 -0.22172585
000070 bf c3 de 3d 63 de f7 3d b8 95 b2 bc 4f 4f 50 3e
       0.10877179 0.12102964 -0.021799907 0.20342754

sequential/conv2d_8/BiasAdd/ReadVariableOp f4 [3]
000000 58 f8 71 be 5f b7 a0 bd 4a 12 7f bd
       -0.23629892 -0.07847475 -0.0622733

sequential/conv2d/Conv2D f4 [32, 3, 3, 3]
000000 6d 4d 75 3d 8d e8 65 bc 57 8d 7a 3d be 8d 4e 3d
       0.059888292 -0.014032495 0.06116995 0.050428145
000010 25 25 aa 3d 68 4d bc bd 68 44 47 3e 19 c7 58 3e
       0.08307866 -0.091944516 0.19459689 0.211697
000020 2f 33 de 3c cb 88 46 3e d9 43 ee 3d f6 c8 99 3c
       0.027124016 0.1938812 0.11634035 0.018772583
000030 36 7a 3b 3e e8 08 f5 bc 50 09 c2 bc 03 a1 82 3c
       0.18308339 -0.029911473 -0.023686081 0.015945917
000040 e4 27 d3 3c 2f 15 56 bd 8d b8 ba bd 72 eb 11 3d
       0.025775857 -0.052266296 -0.091172315 0.03562493
000050 f2 f9 08 3c 92 31 e1 3c b4 d8 dc 3d 71 85 1d 3e
       0.008360373 0.027489457 0.1078352 0.15382935
000060 78 c1 26 bd 51 5a 82 bc 4d fd 66 3e 31 c0 c6 3c
       -0.04071185 -0.015912207 0.22557564 0.024261566
000070 1f 0a 80 bd 6e 2b 17 3e ee de 81 3d 4c c3 5b bd
       -0.062519304 0.14762661 0.063413486 -0.053653046
000080 35 5a 41 3e 62 f4 08 3d a1 de 82 bd be a3 fe 3d
       0.18882068 0.033436187 -0.06390119 0.12433575
000090 4a 10 aa bc fa b2 21 be 0e 43 dc bc 31 6d f6 bd
       -0.02075972 -0.1579093 -0.026887443 -0.12032545
0000a0 e3 0d 96 bc ec d1 22 3e e4 58 6f bc 54 9d bf bd
       -0.018317169 0.15900391 -0.0146085955 -0.0935618
0000b0 de be 21 3d f2 2c 3e bd 78 8f 4c bd d8 cc 25 3e
       0.039488666 -0.046429582 -0.04994151 0.16191423
0000c0 c1 c9 37 3e 5f d3 4f 3d c8 a8 32 3e 11 e7 4d 3d
       0.17948057 0.05073869 0.17447197 0.05026919
0000d0 81 81 53 3e 63 04 e2 bc b4 f5 cd bd b8 13 d4 bd
       0.2065487 -0.027589982 -0.1005663 -0.103553236
0000e0 0e 7c f6 bc 93 f2 3a be 86 81 97 bd c9 eb 16 bc
       -0.03008845 -0.18256597 -0.073977515 -0.009211489
0000f0 57 01 3b be c1 59 17 be bd ca 73 bd 1c 2c 28 be
       -0.1826223 -0.14780332 -0.05951952 -0.16423076
000100 32 57 97 3c 2b ee 02 be e3 86 39 bd 45 bc 7b 3d
       0.018474195 -0.12786166 -0.045294654 0.061458845
000110 17 b0 0c be 7f 96 e8 bc 4d 0c 9a bd be 59 aa bd
       -0.13739048 -0.028392075 -0.075218774 -0.08317898
000120 00 ec 70 bd ac 10 4f bd b9 fd 36 bd 6e ab 64 3d
       -0.058818817 -0.05055301 -0.044675563 0.05582755
000130 48 95 06 be 58 89 9e 3d 3e a2 2c bd 6b a8 b9 3c
       -0.13142884 0.0774104 -0.042146914 0.022663316
000140 a1 64 04 3e f8 f1 2c 3e 3e 59 4e 3d f0 54 42 3d
       0.12929012 0.16889179 0.050378077 0.047444284
000150 28 02 95 3c 85 0c 3a bd 8e 5e 28 3e fc da 50 3d
       0.018189505 -0.045422096 0.1644232 0.05099009
000160 c7 0b 0c bd ee 5f 0d 3e fe 03 f3 3d 48 4a 09 3e
       -0.03419092 0.13806126 0.11865996 0.13407242
000170 29 b9 34 3e 50 3e 54 3e 14 83 aa 3a 8f 06 e9 3b
       0.17648758 0.20726895 0.0013009035 0.0071113775
000180 17 dc 8c 3d ab 09 c2 bd fa 33 b9 3d b0 49 45 bc
       0.06877916 -0.094745 0.09043117 -0.012041494
000190 fd f1 b4 bd bc f1 3b 3e 5f 28 61 3d 77 de f7 3d
       -0.08835218 0.18353933 0.05497014 0.12102979
0001a0 4e f7 17 3e 82 4c 44 3e fc ef 51 3e 50 81 ef bc
       0.14840433 0.1916981 0.20501703 -0.029236466
0001b0 c2 e0 a9 bd ff 0e a8 3d b3 ae 05 3e 3e 71 15 3e
       -0.08294822 0.08205985 0.13054924 0.1459398
0001c0 24 04 f1 3d 14 cd f2 3d c4 85 45 3e cc a3 8f 3d
       0.11768368 0.11855522 0.19289309 0.07013664
0001d0 fd 04 57 bd a5 a8 36 3e 07 cf 21 3e 39 98 0a 3d
       -0.05249499 0.1783777 0.15801631 0.033836577
0001e0 b6 b2 78 3d 0f 6c 69 bb 28 1f 71 bd 1d 38 4e 3d
       0.060717307 -0.0035617386 -0.058867604 0.050346483
0001f0 59 57 7b bd 4a 7e 33 3d bf d5 f0 3c c0 e9 0b 3e
       -0.061362598 0.04382161 0.029398797 0.13663387
000200 0e 52 6a 3d 68 a0 a2 3d 23 5c d0 3d 85 4d 37 3e
       0.05720716 0.07940751 0.10173824 0.17900665
000210 39 80 da bd dd db 48 3d 52 9c 3a bd 2f 84 52 3d
       -0.10668988 0.049037803 -0.045559235 0.05139559
000220 4f ef c9 3c c1 98 39 3e 07 cd c9 3c eb e1 1c 3d
       0.024650244 0.18124677 0.024633897 0.03830139
000230 47 27 21 3e 28 80 ed bd 19 db 9e bd 45 77 49 be
       0.1573764 -0.115967095 -0.07756633 -0.19674404
000240 36 ba 1b 3c eb 01 86 3d c7 fd 4a 3d 54 57 9c 3c
       0.009504845 0.065433346 0.049558427 0.01908461
000250 ca f8 26 be bf 09 1f be 1e e3 e9 3d 10 c4 0a 3e
       -0.16305843 -0.15531062 0.11420272 0.13551354
000260 a3 42 f5 3d e3 47 e0 3c ad 6d 14 3e eb 1d fd 3d
       0.119756006 0.027378028 0.14494963 0.12359222
000270 02 24 30 bb c2 7d 02 3e 31 11 ef 3d 55 ad eb 3a
       -0.002687693 0.12743285 0.11673201 0.0017980734
000280 51 e8 57 3e 63 20 a5 bd 36 ca c1 3d 75 ae 45 3d
       0.21084715 -0.08062818 0.09462397 0.04826208
000290 f0 db ae 3c 44 e9 dc bd 95 00 86 3d 9d 2a 0c 3e
       0.021345109 -0.107866794 0.0654308 0.1368813
0002a0 29 af 4d 3d 64 61 ef 3d 10 ac 3d 3e 0f 76 f4 3c
       0.050215874 0.11688498 0.18522668 0.029841451
0002b0 4f 3d 85 bd a9 b1 db 3d af 8c 55 3d a4 a5 e8 bd
       -0.06505834 0.10727245 0.05213612 -0.113597184
0002c0 34 a6 d5 bd 21 54 05 be 74 22 c4 3d 3e 3f 32 3e
       -0.10432091 -0.13020374 0.09576884 0.17406937
0002d0 18 65 62 3d 51 25 9e 3d 1b cc 82 3d ec d2 33 3e
       0.05527219 0.07721961 0.06386586 0.17560929
0002e0 58 f5 bf bd 28 cc fb 3d 15 73 88 bd 8b f2 65 bd
       -0.093729675 0.12294799 -0.06662575 -0.05613951
0002f0 b1 a8 ee 3d b5 99 58 bb 75 c2 2b 3e d5 60 0f bd
       0.11653269 -0.00330506 0.16773398 -0.035004456
000300 06 f2 8b 3d fa ad 19 3d 62 e6 96 bd ee fc 08 bd
       0.06833272 0.037519433 -0.07368161 -0.033444338
000310 e0 09 a8 3d 4c aa a1 3d 3c 31 94 3d 8b ed b7 3d
       0.082050085 0.0789381 0.07235953 0.089808546
000320 22 4a 31 bd 35 ba c2 3d 5d 82 dd bd 8d 09 e1 3c
       -0.04328359 0.095081724 -0.108158804 0.027470374
000330 f2 86 1b 3e 59 92 37 3e 76 e4 bf 3d c6 09 06 3e
       0.15188196 0.17926921 0.09369747 0.13089666
000340 b9 fc 3d bb 84 a1 01 3e 31 2d fd 3d 74 d3 c6 bd
       -0.0028989746 0.1265927 0.12362135 -0.097083
000350 87 7e 1c 3e c6 f3 1b 3e 7f c2 25 3e de 41 c5 bd
       0.15282641 0.15229711 0.16187476 -0.09631704
000360 3d 6b 4d bd 6d 4a 62 3d 16 53 58 bd b5 1c 9d 3c
       -0.0501511 0.05524676 -0.052813612 0.019178728
000370 a0 f4 8e bb c7 1b b4 bd 21 2c 94 bd 03 6b 83 3d
       -0.0043626577 -0.087943606 -0.072349794 0.06416895
000380 9b df 11 be c3 3e 2c 3b 2b 80 08 3c fc 58 30 3d
       -0.14245455 0.0026282526 0.008331339 0.043053612
000390 7a 55 c3 3d e8 f1 35 bd 03 40 c0 bd 08 03 ff bc
       0.09537788 -0.044420153 -0.09387209 -0.031129375
0003a0 0d 5c da bd 01 f0 b9 bd e6 23 4b bd d6 08 19 bc
       -0.106620885 -0.0907898 -0.049594782 -0.009340486
0003b0 f2 b9 7c 3d 63 ec f4 3d 67 92 71 bd cd c0 9e bd
       0.06170077 0.1195915 -0.05897751 -0.077516176
0003c0 08 f3 19 bc 9d 8c 9a bc ca 78 d8 bd d6 cc 90 3e
       -0.009396322 -0.018865878 -0.10569914 0.28281277
0003d0 2e 5e 87 3e 17 a2 67 be 3f 0e 12 3e 82 3c f2 bd
       0.2643904 -0.22620426 0.14263247 -0.11827947
0003e0 f8 d2 f8 bd 45 d5 cd 3d df 5e 91 bd 80 2e 4a 3e
       -0.12149614 0.100504436 -0.07098173 0.19744301
0003f0 53 0d 54 3d ee 95 a3 bd b9 15 04 bf 69 46 f9 3d
       0.05177052 -0.07987581 -0.51595646 0.12171633

sequential/conv2d_1/Conv2D f4 [16, 3, 3, 32]
000000 34 5f 08 3d 71 ea bf bd 9f 4f 2e bd 1a 6d b2 3d
       0.033293918 -0.09370888 -0.0425564 0.08712216
000010 d2 6c aa 3d 49 7f 54 bd 1f 3d c9 bd 0c 55 5f 3d
       0.08321537 -0.0518792 -0.09826111 0.054524466
000020 50 41 8f 3d 17 79 36 bd a3 f8 d5 bd f7 b0 bb 3d
       0.06994879 -0.044549074 -0.10447814 0.09164613
000030 dc ca b7 3d 4e fa 23 3d c1 91 c6 bc c2 cf c5 bc
       0.08974239 0.04003363 -0.024239423 -0.024146918
000040 c8 3e f9 3c 11 ae 6b bc 75 dd b5 3d 10 23 b7 3d
       0.030425444 -0.014384762 0.0888013 0.089422345
000050 41 c8 c9 bc b8 06 ab 3d 71 3b 95 bd 0a 36 e5 3c
       -0.024631621 0.08350891 -0.07286728 0.02797987
000060 a6 1f c0 3a bc 54 ef bc 29 7c cf 3d 14 59 60 3d
       0.001465787 -0.02921521 0.101311035 0.05477245
000070 97 c3 e3 bd 18 98 f1 3c 28 4c f9 bd 06 52 12 bd
       -0.1112129 0.02949147 -0.12172729 -0.035722755
000080 f7 ef a7 bc b0 80 f6 3c 40 76 88 bd 6e cf bc 39
       -0.020500166 0.03009066 -0.066631794 0.00036012701
000090 4b 21 bd bd e9 4d cc bd b6 a8 0e 3d 52 fd 9c bd
       -0.09234866 -0.09975798 0.034828864 -0.076655045
0000a0 06 bb cc bb ef b3 3e 3c 7f 2c fb bd 3b 1c 7c bd
       -0.006247881 0.011639579 -0.12264346 -0.06155036
0000b0 22 34 c7 3d a6 c4 be bd e3 ec a8 3d 5e 2a b0 3d
       0.097267404 -0.093148515 0.082483076 0.08601831
0000c0 93 13 f5 3c 0f 79 76 3a 9b dd f9 bc c9 09 4c bc
       0.02991656 0.00094021944 -0.030501178 -0.012453505
0000d0 91 1d a6 3d 5f 52 bd 3d 1b af 89 3c 5d 91 86 ba
       0.08111108 0.09244227 0.01680713 -0.001026671
0000e0 c9 6c 69 3c 47 9b a9 3c 43 ba 04 3d a9 bb cf bd
       0.014247128 0.020703925 0.032404196 -0.10143215
0000f0 54 55 ff bd a4 c7 33 3d 56 72 d4 3d af ac a6 3c
       -0.12467447 0.043891564 0.1037337 0.020346014
000100 59 63 f4 3d 29 d9 4f bd 4e c3 35 3d 27 27 1d bd
       0.119330116 -0.05074421 0.04437571 -0.038367417
000110 6a 58 27 bc 8e ae 98 3a 1e eb 53 3d 3f 9e 9c 3d
       -0.010213951 0.0011648701 0.051737897 0.076473705
000120 54 e5 00 3d 82 00 3f 3d c2 c8 1b bd 1e 5c 9c bc
       0.031468704 0.046631344 -0.038033254 -0.019086894
000130 0f ea 10 3d 36 ab 8f bd ca f3 89 bd 16 e9 98 3d
       0.035379466 -0.07015078 -0.06735952 0.074663326
000140 2d 61 3a 3d 60 b4 82 3c 39 c3 e8 3b 0d ef b4 3d
       0.04550283 0.01595515 0.0071033505 0.08834658
000150 b9 07 ec 3c 3f 56 70 bd fe 55 4e 3c 03 3a 9a bc
       0.028812276 -0.058676 0.012593744 -0.01882649
000160 e9 f2 ab bd 51 95 c5 3d 3f b7 5a 3d a2 c6 ba 3d
       -0.08395941 0.096476205 0.053397413 0.091199175
000170 ae 85 a9 3c 26 01 78 3d 9d 79 c3 3c 73 38 6f bd
       0.020693626 0.06054797 0.0238617 -0.058403444
000180 2e 51 53 3c 97 f7 a4 3c 83 8b 6c 3c 2e 98 aa 3d
       0.012897773 0.020137591 0.014437559 0.08329807
000190 24 31 7d 3c 48 69 bf bc b0 1f d8 bd 0e 44 8d 3d
       0.015453611 -0.023365632 -0.10552919 0.06897746
0001a0 0b b8 98 3d 84 e4 28 3c 50 b2 88 bd 11 21 64 3d
       0.074569784 0.010308389 -0.066746354 0.055695597
0001b0 ae d0 46 bd 5a a8 8e 3c 94 63 54 3d 27 cf cd bd
       -0.048538856 0.01741426 0.051852778 -0.10049277
0001c0 9b 82 10 bd e9 ee a7 bc 16 4d 4d bc 52 1e c5 bd
       -0.035280805 -0.020499663 -0.012530586 -0.09624924
0001d0 fe c6 93 3b 10 65 9e 3d 68 e5 9e bc 61 25 4b 3d
       0.0045098057 0.0773412 -0.019396499 0.049596194
0001e0 22 2a e7 bd e1 46 0c bd bc bf 1a 3d 3a 93 d8 bd
       -0.11287333 -0.034247283 0.03778051 -0.10574956
0001f0 a9 33 e3 bd bd 77 a4 3d 42 42 8f bd 2e d6 ab bd
       -0.11093838 0.08030651 -0.069950595 -0.08390461
000200 58 47 4d bc c6 3b b8 3b e1 73 c9 3d 48 02 88 bd
       -0.012529217 0.00562236 0.09836555 -0.0664106
000210 8e d9 95 3d 0f 72 a3 bd 49 54 2b bd 5b e6 98 3d
       0.07316886 -0.07980739 -0.041828427 0.07465812
000220 ac 09 d2 bd 86 d9 15 3d af 4c bb 3c 1f 58 a7 3d
       -0.10255751 0.0365844 0.022863714 0.08171105
000230 53 7a 8f bd 7b f4 66 3d ec e4 ea bc d8 b0 95 3d
       -0.07005753 0.0563855 -0.028673612 0.07309121
000240 5e d4 ef bd 54 19 13 3c 0d 5a c7 3d 23 b3 3d bd
       -0.11710428 0.008978207 0.09733973 -0.046313416
000250 1a ca d5 bd fc 36 ac 3d 80 f0 62 bd 26 2a a4 3c
       -0.104389384 0.08408925 -0.05540514 0.02003963
000260 90 a5 8d bd 7a 1a c0 bd b3 f4 c2 3d d4 4d d9 bc
       -0.06916344 -0.0938005 0.09519329 -0.02652637
000270 3d 3c 0f 3d fc 42 f8 3c 3c 70 7b 3d 1d 88 78 3d
       0.034969557 0.030305378 0.061386332 0.060676683
000280 9d 23 cd bd f5 83 ba bd 85 f2 82 3d 60 3e 3b bd
       -0.10016558 -0.091072 0.06393913 -0.045713782
000290 db 65 89 bc ef ea 9f 3d 3f a8 9c 3c 59 d2 c9 bd
       -0.016772201 0.07808482 0.019123195 -0.09854574
0002a0 c5 00 92 3d 10 ba 10 3d ee 46 b2 bd 68 6e 63 3b
       0.07129053 0.035333693 -0.08704935 0.0034703258
0002b0 af 24 0c bd 50 1e 3a bd 43 52 66 3d 87 9f ab 3d
       -0.03421467 -0.045439065 0.056230795 0.08380037
0002c0 bf 64 dd bd eb 24 cd bd 8d a9 e6 bd aa 0e 5b 3c
       -0.108102314 -0.10016807 -0.11262808 0.013370195
0002d0 94 c9 e5 bc 61 1e 09 3d 40 53 93 bd 8d 6d 44 3d
       -0.028050222 0.033476237 -0.07193613 0.04795604
0002e0 b5 80 45 bd 0a 3e aa bd a8 53 88 3d 03 1d 81 bd
       -0.048218448 -0.08312614 0.06656581 -0.06304362
0002f0 5a 16 8a bd 1f 39 a8 3d 83 6c 30 bd 19 26 45 3d
       -0.067425445 0.0821402 -0.043072235 0.048132036
000300 41 b7 97 bd 9f 91 98 3d f3 d7 6e bd ab 02 84 3d
       -0.07408 0.0744965 -0.058311414 0.064458214
000310 3c b2 ad bd 7a 3e c9 bd 6f 8a 53 bd b4 6c 9c 3d
       -0.08481261 -0.098263696 -0.051645692 0.07637921
000320 5c e8 16 bd bb 48 82 3b f7 67 7b 3c 44 0c c3 3c
       -0.03684269 0.0039759553 0.015344611 0.02380956
000330 d5 f2 0b bd 0e c4 9c 3d 1c 88 74 bc b3 c2 b1 bd
       -0.03416713 0.07654582 -0.014925029 -0.08679714
000340 ea 93 9e bb 35 2b ad 3c b5 60 1b bc e2 d4 97 bd
       -0.00483941 0.021138767 -0.009483506 -0.07413651
000350 97 8e 9a bd f6 97 cd 3d a0 d2 c5 3d 17 94 9b 3d
       -0.07546728 0.1003875 0.09659314 0.07596605
000360 e2 88 73 bd 24 d9 b7 bd 51 e5 65 bd ad fa 83 3d
       -0.059456713 -0.08976963 -0.056126896 0.06444297
000370 39 fb a5 3d dc 10 3b 3d c9 de 2a bd c4 f3 4c bd
       0.081045575 0.045670375 -0.04171637 -0.05003716
000380 df f2 ba bd 34 1e b3 bc d8 9e c1 3d 92 ad c8 3d
       -0.09128355 -0.021864988 0.09454125 0.09798731
000390 44 f2 ec bc da 85 b8 bd 15 1e 94 3d 61 68 5f bd
       -0.028924115 -0.09009905 0.072323 -0.054542903
0003a0 6c 87 07 bd fa 17 14 bd 9a 72 e9 bd 58 5d 58 3d
       -0.033088133 -0.03615568 -0.11398812 0.052823395
0003b0 10 cf 8d 3d f0 ed 93 3d 46 ac 4a bb 3c 80 ed bd
       0.0692426 0.07223117 -0.0030925437 -0.115967244
0003c0 a8 e4 02 3d a4 36 cd bd 39 3e 1f bc a0 1c 63 3c
       0.031956345 -0.100201875 -0.009719425 0.013861805
0003d0 a6 4f 47 bb 78 6c 12 3d 83 46 83 bb 0c 11 91 bc
       -0.0030412464 0.035747975 -0.0040062084 -0.017708324
0003e0 c7 14 8b 3d 21 b3 c2 bd 43 be 14 bd fb 9f 9a 3d
       0.06791072 -0.095068224 -0.03631426 0.07550045
0003f0 b3 c5 c3 bd 1c c1 e3 bd b6 bf ac bd 9f 85 85 3d
       -0.095591925 -0.11120817 -0.084350035 0.06519627

sequential/conv2d_2/Conv2D f4 [8, 3, 3, 16]
000000 b0 3f 0d 3e c6 cf 8a 3d 55 6f 83 bd c3 bf 12 be
       0.13793826 0.06777911 -0.06417719 -0.14330964
000010 f3 43 b3 3d 92 2f f5 bd 98 60 2a bd 25 f4 ca bb
       0.08753195 -0.11971964 -0.041596025 -0.006193655
000020 4c 3d a5 3d 7a dc bc 3d ae b2 e0 3d a7 a7 38 be
       0.08068332 0.0922174 0.109715804 -0.18032704
000030 f5 c7 16 3e ab 62 af 3d e3 ea f3 bd 50 4e 73 3c
       0.14724715 0.08563741 -0.119100355 0.014850214
000040 7c 54 54 bd c0 ad d3 bc 48 9f d7 bc bf b6 a7 3c
       -0.051838383 -0.025839686 -0.026321068 0.020472882
000050 bb 5e 0a bd 3c b5 b0 3d 91 fa a5 3d 7c 50 ac bd
       -0.03378175 0.08628318 0.081044324 -0.08413789
000060 9d 7e 21 be e5 40 d5 bd 07 fd 03 3d 28 f2 0f be
       -0.15770955 -0.10412768 0.032223728 -0.14057219
000070 0c bb a0 bd a0 a6 a1 3d a7 d9 5a 3c e8 c9 86 3c
       -0.07848176 0.07893109 0.013357556 0.016453698
000080 c3 0f 1a 3e 60 1d c1 bd 8a 7c 82 bd c6 eb 00 3e
       0.15045075 -0.09429431 -0.0637141 0.1258994
000090 6d 48 65 3d 07 18 59 bc f6 41 23 3d 77 bb 3e 3d
       0.055977274 -0.0132503575 0.039857827 0.0465655
0000a0 28 45 e5 bd d0 2b f1 3d ea bc 0b be 70 fb b8 3e
       -0.11194831 0.11775935 -0.13646284 0.36129332
0000b0 0e a5 57 bd c7 5a 1d be bb 65 d7 3d 30 26 2a 3c
       -0.052647643 -0.1536666 0.105174504 0.010385081
0000c0 f6 07 c4 3b 40 3a ae bd f0 07 9a bd b7 05 ab 3c
       0.0059823943 -0.08507204 -0.07521045 0.020876748
0000d0 d0 3d 6b 3d f3 7b a3 bd 4e e6 bc 3d e9 17 9b 3c
       0.057431996 -0.07982626 0.09223615 0.0189323
0000e0 aa cf ba bc fd e9 28 3e 60 38 eb bd e9 eb cc bd
       -0.0228041 0.1649551 -0.11485362 -0.10005934
0000f0 c6 68 9a bd 35 1f a1 bd 06 fc 02 3c 12 dc 9f 3c
       -0.07539515 -0.078672804 0.007994657 0.019514117
000100 0c d9 c5 bd 42 39 d7 3d 1e 48 8f bc 71 33 de 3d
       -0.09660539 0.10508968 -0.017490443 0.108496554
000110 d7 d2 02 3d c4 c6 ba 3d 1b 79 a5 3d 00 d4 9f 3d
       0.031939354 0.09119943 0.0807974 0.07804108
000120 a9 e1 0b 3c 68 6d 3c bd 50 33 fd bd a0 57 05 be
       0.008537688 -0.046002775 -0.12363303 -0.13021708
000130 98 71 ce bd c5 c7 ae bd 7b 4f b6 3c af 76 29 3e
       -0.1008026 -0.08534197 0.022254696 0.1654918
000140 ea 1e c8 bd 9b 1e 13 be 5b d8 8c 3d 7e 85 0b 3e
       -0.097715214 -0.14367144 0.06877204 0.13625142
000150 0f 17 10 3d 07 9a 33 be 15 52 1a be 75 99 0a be
       0.03517824 -0.17539226 -0.15070374 -0.13535102
000160 49 9e f7 3b 3a dd c0 bd b9 91 a2 bc df 9f 8a 3e
       0.007556711 -0.094171956 -0.019844877 0.27075097
000170 b9 11 c0 bd 5e 2d 0f be 88 2a 2a be 51 15 1b 3e
       -0.0937838 -0.1398215 -0.16617787 0.1514485
000180 89 6d e6 3d ea c0 84 3d 77 11 22 be 24 a9 13 be
       0.11251361 0.06482108 -0.15826975 -0.14419991
000190 f4 2e a0 3d da 53 10 3d 68 bd a3 bd 37 e9 58 bd
       0.078214556 0.035236217 -0.07995111 -0.052956786
0001a0 82 8a 1a 3e eb 50 e3 3d 24 bc bc bd 77 48 cd 3c
       0.15091899 0.11099418 -0.092155725 0.025058968
0001b0 e1 0c 14 be 7d dd 15 3e 5b 60 d2 3c d2 f1 76 bd
       -0.14458038 0.14635272 0.025680711 -0.06028921
0001c0 fd 67 bb bd 16 de c8 3d 14 0f 23 3e 21 aa cf bd
       -0.091506936 0.098079845 0.1592372 -0.101398714
0001d0 68 8d 21 be 0d 74 29 3e 3f 53 bf bd 65 1b c3 bc
       -0.15776598 0.16548176 -0.0934205 -0.023816774
0001e0 00 0a 7f 3d 4d db 04 bd 15 a1 e5 3d ea 35 18 be
       0.062265396 -0.032435704 0.112123646 -0.14864317
0001f0 55 06 78 bd f0 0c ca bd b8 e7 0a be d6 65 ac 3c
       -0.060552914 -0.09865749 -0.13564956 0.021044653
000200 47 ec ba bd e1 ae 28 3e 69 d1 21 bd 8b 7f 5a 3e
       -0.091270976 0.16472961 -0.03950635 0.21337716
000210 a8 9a 07 be 71 2d d9 3d 97 f9 e6 bd 27 89 d5 bd
       -0.1324259 0.106043704 -0.11278074 -0.1042655
000220 f4 b2 d3 3d c9 09 13 bd 84 c3 bc bd 18 70 eb bb
       0.10336867 -0.035898004 -0.09216979 -0.0071849935
000230 09 90 4b bd 71 06 e3 3d 7c 43 06 3e 94 0c 49 3d
       -0.04969791 0.11085213 0.13111681 0.04908426
000240 a8 fd cd 3d 60 44 08 bd 67 1b 1b 3e 96 3d 00 be
       0.10058147 -0.033268332 0.15147172 -0.12523493
000250 2b 81 f8 3d 01 2b f2 bd 64 2c 16 3e 45 87 44 3d
       0.12134012 -0.118246086 0.14665371 0.047980566
000260 7a 6c cc 3d 2b 5f 7a 3d 84 5c 37 be b5 9a 3a 3e
       0.09981628 0.061125915 -0.17906386 0.18223079
000270 2b 5a 1b 3d a0 2b 84 3d f6 b1 ec 3d 18 03 f6 bc
       0.037927788 0.06453633 0.11557381 -0.030030772
000280 05 47 be bd 25 1f 12 be c3 b7 d6 3d f4 9c 58 3c
       -0.0929089 -0.14269693 0.104842685 0.013221014
000290 1a 78 b9 bd 4a a9 c9 bc 86 60 ae bd c2 d8 19 be
       -0.09056111 -0.024616856 -0.08514504 -0.15024093
0002a0 7a 43 94 bd be 22 17 3d 35 c8 5c be a1 83 f0 3d
       -0.07239433 0.036898367 -0.21560748 0.11743856
0002b0 3e 45 6f bd df 00 da 3d 4d 7d ba 3d bb af 0d 3e
       -0.058415644 0.106446974 0.091059305 0.13836567
0002c0 c8 37 5c 3c a3 34 21 3e 59 4a 52 3e e6 39 b9 bd
       0.013441034 0.15742736 0.20536174 -0.090442464
0002d0 3d 68 13 be b1 4d 46 3e 5f 50 93 bd 1f d2 77 bd
       -0.14395232 0.19365574 -0.07193064 -0.06050312
0002e0 b8 d4 b0 bd cd da a0 3d c3 c3 0a 3e 2a 37 b7 3d
       -0.08634323 0.07854233 0.1355124 0.089460686
0002f0 34 a5 6a bd 27 e9 1b 3e eb ca 2b bd 56 c2 13 be
       -0.057286456 0.1522566 -0.041941565 -0.14429602
000300 f4 f9 d0 bd 9d a6 5d 39 36 03 b7 be aa f3 6c be
       -0.10203925 0.0002113827 -0.35744637 -0.23139825
000310 f2 b7 93 3d 83 d2 90 be 15 b1 11 3d 10 e4 83 bd
       0.07212819 -0.28285608 0.03556927 -0.06439984
000320 20 f9 1c 3e 2c 95 d5 3d 54 ed b9 bd ad bf 80 3e
       0.15329409 0.10428843 -0.0907847 0.25146237
000330 b9 12 9a 3c 76 53 e7 bc 1e ae 84 be d3 2a 00 3e
       0.018807756 -0.02823804 -0.2591409 0.12516336
000340 22 b1 68 bd f3 03 07 be 5d f6 03 be b0 4b ba 3d
       -0.056809552 -0.131851 -0.12886949 0.090964675
000350 ac 77 e7 bd f1 4f a2 bc ca 66 c7 3d 0a 9d b6 3d
       -0.113021225 -0.01981351 0.09736402 0.089166716
000360 25 50 f1 bc 67 90 24 3e ce 16 88 3d d7 bd b5 3e
       -0.029457161 0.1607071 0.06644975 0.354964
000370 9b b9 0e be b2 0d 52 3d 89 51 47 bb 56 53 a9 3d
       -0.1393799 0.051282592 -0.003041359 0.08267848
000380 b5 f4 0c be b3 60 0e be 8e 02 bd 3d f4 9a 1b 3e
       -0.13765223 -0.13904075 0.09229003 0.15195829
000390 50 e3 d0 3c 0e 92 3f 3e 0a be 26 3d 46 e8 d4 3c
       0.025499016 0.18708059 0.04070858 0.025989663
0003a0 2a df 10 3e e2 2c 89 bc 1e b9 22 3e ad 86 2f be
       0.1414763 -0.016745035 0.15890929 -0.17141218
0003b0 9e ca 10 bb f6 4b 22 3e ff 95 f5 3d c3 be 1c be
       -0.0022093426 0.1584929 0.119915 -0.15307145
0003c0 57 b8 71 3c a0 64 a0 3b 30 ba 03 3e 82 5d 88 bc
       0.014753423 0.004894808 0.12863994 -0.01664615
0003d0 18 34 b2 3d a3 26 7c bd f4 2f f6 bd 5b 6a ae 3d
       0.08701342 -0.061560284 -0.12020865 0.085163794
0003e0 58 64 c5 bd bc f3 66 bd 89 53 d2 bd 69 b2 9d bd
       -0.0963828 -0.056384787 -0.10269839 -0.07700045
0003f0 75 0e b5 3d 0f 82 36 3c 55 6f f4 bd 4a a6 82 3d
       0.08840648 0.011139407 -0.119352974 0.06379373

sequential/conv2d_3/Conv2D f4 [2, 3, 3, 8]
000000 0a b5 27 bd 16 e7 03 be 48 78 7d bd 1a c6 89 be
       -0.040944137 -0.12881121 -0.061882287 -0.26908952
000010 37 62 19 bd ce e5 7c 3e 72 a7 f5 3d 9f af d6 3e
       -0.03744718 0.24697039 0.11994828 0.41930863
000020 17 39 77 be 9a 7a 5e be 11 e0 05 bd f6 2a a5 3d
       -0.24142872 -0.21726456 -0.03268439 0.08064835
000030 ae 9c 89 be 88 a8 3b 3e 10 ad a9 3e 78 a1 ab 3d
       -0.2687735 0.18326008 0.3313985 0.08380407
000040 d0 ab 10 be 29 19 31 be e2 48 5b be e9 54 86 3e
       -0.14128041 -0.17294754 -0.21414521 0.26236656
000050 21 89 f0 bd a4 f9 7a be 6f fc b5 3d 21 28 5e bc
       -0.11744905 -0.24509293 0.088860385 -0.013559372
000060 49 2e 53 3d 0b e5 fc bd 4f f3 e1 3d 82 69 a0 be
       0.051557813 -0.12348374 0.110327356 -0.31330496
000070 e6 5a 28 be a6 c7 f9 bd 85 9e 1f 3e 3e 29 3a be
       -0.16440925 -0.12196283 0.15587814 -0.18179795
000080 0c 58 5e 3e a1 df b1 3d 7d 47 90 3e 83 5d 73 3d
       0.21713275 0.08685232 0.2817954 0.05941535
000090 12 7b 77 3e 4d f0 80 3e 7c 76 6c be 57 f2 26 3e
       0.24168041 0.25183335 -0.23092073 0.16303383
0000a0 52 c4 a5 3e 4c 5d a9 3d 6d 56 71 be b2 30 86 3e
       0.32376343 0.08269748 -0.23568125 0.26209027
0000b0 de 05 8b 3d 6d b3 5c bd 4d 68 48 bd c7 4c 75 be
       0.067882285 -0.05388205 -0.048927594 -0.2395507
0000c0 c2 52 e3 be 40 94 a8 3e 86 c6 91 be 19 50 24 3c
       -0.44399077 0.32925606 -0.28471774 0.010028862
0000d0 0e 01 24 be 8f e9 88 be 3c 28 d0 be 2b de d1 be
       -0.16016027 -0.2674069 -0.40655696 -0.40989813
0000e0 1e ff 62 3e 2f 9d 20 be 64 8c 17 3c 90 df ef 3c
       0.22167632 -0.15684961 0.00924978 0.029281408
0000f0 13 a0 8a 3c 84 49 0f 3e d0 8f e4 bd 38 f1 95 be
       0.016922032 0.13992888 -0.111602426 -0.29285598
000100 bd ff e4 bd 96 9c ce 3e e6 e7 ac bd b2 2c 2c be
       -0.11181591 0.4035384 -0.084426686 -0.16813925
000110 02 9f 19 3e 25 4d 38 3e cd a6 c0 3d 3f 12 86 bd
       0.15002063 0.17998178 0.09406815 -0.06546449
000120 b9 38 7b 3e 16 54 d1 be 40 d4 73 3e 48 57 26 be
       0.24533357 -0.40884465 0.23811436 -0.16244233
000130 c5 76 a2 be e2 3b 0f 3e 33 1c 34 3e 07 73 58 bd
       -0.3173124 0.13987687 0.17588882 -0.052844074
000140 de 75 fc be 76 36 e7 be c6 5b 34 3e 6e 67 30 bd
       -0.49308676 -0.45158738 0.17613134 -0.04306739
000150 4c 34 86 3e 8b 49 42 3e 1e 61 6f 3c 7b 45 9d bd
       0.26211774 0.18973367 0.014610557 -0.07679268
000160 72 84 8b 3d b4 16 d5 be d4 d3 7e 3c f0 be d0 3d
       0.06812371 -0.41618884 0.015553433 0.101926684
000170 26 ab 8e be 87 46 1e be f7 55 a4 3c 89 5b 18 3e
       -0.2786495 -0.15456592 0.020060522 0.14878668
000180 86 56 c2 3c 53 51 d3 3e 3c 4a 5d bd 94 01 36 3e
       0.023722898 0.41272983 -0.054025874 0.1777404
000190 ad c8 61 be 30 ea b8 3d 2b a6 49 3c e1 a0 1b 3d
       -0.22049208 0.09029043 0.012307684 0.037995223
0001a0 31 b9 ea bd 02 e3 87 3d 27 83 02 be 26 66 42 3e
       -0.11461104 0.06635095 -0.12745343 0.18984279
0001b0 10 01 87 3e 2a 6c 03 3e 19 6a 04 be c3 c9 1d be
       0.26367998 0.1283423 -0.12931098 -0.15408997
0001c0 db 93 98 3e 7d 71 08 3f 9e 24 7e bd 34 d5 34 be
       0.29800305 0.5329817 -0.06204664 -0.17659456
0001d0 55 6c 72 3e 11 a5 e4 bd 57 13 15 be 4c d5 9d be
       0.23674138 -0.111642964 -0.14558159 -0.30826795
0001e0 9e 25 f0 bd a9 e9 27 bd d3 c3 14 3d d3 28 41 3f
       -0.11725925 -0.04099432 0.036319565 0.7545292
0001f0 3b 8e 07 3e db 7d 38 be 15 b1 4a be c7 e1 9b be
       0.1323785 -0.1801676 -0.19794114 -0.30445692
000200 4e 30 13 3e a8 c7 8c 3e a9 cd 2d 3c 0b 11 23 3e
       0.14373896 0.27496076 0.010608115 0.1592447
000210 ea 1e 2e be d0 ea 97 3e a3 ee 8e 3c 39 50 65 be
       -0.1700398 0.29671335 0.017447775 -0.22393884
000220 ec 0b 07 3f 05 c9 d6 3e fa cc 94 be 5e 28 20 3e
       0.52752566 0.4195024 -0.29062635 0.15640399
000230 21 78 67 be 3f b4 15 be 38 88 dd bc d4 d1 f7 bd
       -0.2260442 -0.1461954 -0.027042493 -0.121005684

sequential/conv2d_4/Conv2D f4 [2, 3, 3, 2]
000000 2b 2b 95 be 40 dd 92 3d 03 33 8b 3e 45 1e d5 bd
       -0.29134497 0.07171106 0.27187356 -0.10406164
000010 88 1c d5 3e ce 3a ee 3e 35 fd ce 3e 67 e8 18 bf
       0.4162333 0.4652924 0.40427557 -0.5972962
000020 0a c5 98 3d 25 3c e4 3d df e1 ab 3c 1e 36 3b 3e
       0.07459457 0.11144284 0.020981727 0.18282363
000030 48 6b b7 be 66 5f 88 3e c1 8f e6 3e 9c 3e b0 3e
       -0.35824037 0.26635283 0.4503155 0.34422767
000040 af 31 1e bf 67 4a c2 be 77 ac 39 be 71 18 8e bc
       -0.6179456 -0.3794739 -0.18132196 -0.017345639
000050 bf b6 c0 be 03 d3 08 be be 07 0f be 87 3b cd be
       -0.37639424 -0.13361745 -0.13967797 -0.40084478
000060 22 22 b3 3c e9 23 03 3e a4 92 03 3f 73 9c bd 3d
       0.021866862 0.12806667 0.5139563 0.09258356
000070 ed 04 8d 3e 79 c7 30 be dc c6 31 be c8 7d 1a bd
       0.2754282 -0.17263593 -0.17361015 -0.03771761
000080 3a 96 2c bf ef 2d 6c be e7 a2 6b 3e fd 2a c7 3e
       -0.6741673 -0.23064397 0.23011361 0.38899985

sequential/conv2d_5/Conv2D f4 [8, 3, 3, 2]
000000 05 c3 b8 3d 77 65 93 bd 77 ac 43 3d 2e 01 6c be
       0.09021572 -0.07197087 0.047771897 -0.23047325
000010 84 cb 8c 3e 49 53 95 3e 41 41 50 3e 75 0a ea 3c
       0.2749902 0.29165104 0.20337392 0.02856944
000020 fa f7 a1 bc 5e 62 e9 bd 56 1f 15 3e 17 35 cd be
       -0.019771565 -0.11395715 0.14562735 -0.40079567
000030 6b 52 14 3e 29 29 90 be cc b0 df 3c c8 42 95 bc
       0.14484565 -0.28156403 0.027305983 -0.01822032
000040 e6 07 4c be 3c 23 bd 3d 9d 9c a6 be 31 97 b1 be
       -0.19924888 0.09235236 -0.3254136 -0.34685662
000050 17 c1 f5 3d d2 ec c1 be 5b d2 a8 3e f6 a2 04 3e
       0.119997196 -0.37875992 0.32972988 0.1295279
000060 f3 96 39 3e c6 4e 0d be 16 85 af bb f3 a0 a8 bc
       0.18123989 -0.13799581 -0.0053564413 -0.020584559
000070 9e 0f 47 be cb 07 a8 3d d0 0b 19 3e 55 16 a1 be
       -0.19439551 0.082046114 0.14945912 -0.3146235
000080 76 6d c6 be c5 c3 d1 3d 85 a4 94 3e 12 ad b6 3b
       -0.38755387 0.10242418 0.29031768 0.005574831
000090 f0 db 8b 3d 00 cc 3e 3c 2c 1d f4 3d 28 47 90 3d
       0.06829059 0.011645317 0.119196266 0.07044822
0000a0 ec 40 a5 bd 96 99 7b be 81 c5 43 be bb 12 cd bd
       -0.080690235 -0.24570307 -0.1911831 -0.10013338
0000b0 cf e2 6e be 13 87 2c bd d4 13 9e 3d 4e 48 95 bd
       -0.23328708 -0.042121004 0.07718626 -0.07289182
0000c0 db 94 f1 be 01 3b 42 3e 22 5a 09 bf e4 e3 fd 3d
       -0.4718388 0.1896782 -0.53653157 0.12396982
0000d0 0e 16 8c 3d da 79 6e be ab f9 d7 bd 10 cb b9 3c
       0.06840144 -0.2328867 -0.10545667 0.022679836
0000e0 fd 0e a7 3c 46 17 15 3e f8 43 90 3b 69 4d 6d be
       0.02039289 0.1455966 0.0044026338 -0.23174061
0000f0 03 74 17 3e 1b f2 35 3e d5 2e 96 3c c5 36 e5 bd
       0.14790349 0.17768137 0.018332878 -0.11192087
000100 5f 1c 6a 3e f9 7c 1a bc 75 9d 44 3e ac 36 43 bd
       0.22862385 -0.00942921 0.1920069 -0.04765956
000110 c8 1f 2e 3e 2f 24 51 be 5a b8 30 3e 44 e2 ae be
       0.17004311 -0.20423959 0.17257825 -0.34157002
000120 b8 2e 30 be 89 0c f7 3c 29 f8 1c 3e dd d9 2e ba
       -0.17205322 0.030157344 0.1532904 -0.00066700374
000130 c6 1e 88 3e ca 46 a8 3c c6 9d ad 3d 4e 73 53 3e
       0.26585978 0.020541567 0.084773585 0.20649454
000140 d9 9a 5c be 73 59 6d bd d2 e3 9f 3d 8e e5 ef bb
       -0.21543445 -0.057946634 0.07807125 -0.007321066
000150 2c 3c 62 3e 64 ee f5 3d 53 72 02 bb 36 97 68 bd
       0.22093266 0.1200836 -0.0019904568 -0.05678483
000160 c6 f9 81 3d 9e cf ab 3d 26 d1 d0 bd cd 05 09 3e
       0.063464686 0.08389209 -0.10196142 0.13381119
000170 a9 0d c9 3d 9e 89 d3 3e 3e f5 94 3e 7f 48 51 be
       0.098170586 0.4131593 0.29093355 -0.20437811
000180 67 91 9f 3d 77 3f 1c be 6b f2 52 be c6 af d8 3d
       0.07791405 -0.15258585 -0.20600288 0.10580401
000190 9f e0 91 be 27 99 89 be 71 c9 b8 3d e8 11 0a 3e
       -0.28491685 -0.26874658 0.09022797 0.13483393
0001a0 4f 2b 98 be 0e 85 59 3e d7 c0 11 3e 32 7a 1a 3e
       -0.29720542 0.21242163 0.14233719 0.15085676
0001b0 18 fe 2c 3d 00 95 92 bb 20 d0 4b bd d0 54 69 be
       0.04223451 -0.0044733286 -0.04975903 -0.2278626
0001c0 71 90 2c be 48 25 a3 bd f8 78 07 be c6 d5 eb bd
       -0.16851975 -0.07966095 -0.1322974 -0.115153834
0001d0 b0 c0 0a bc 7b d2 03 be 7c a2 7a bd e2 53 0e 3e
       -0.008468792 -0.1287326 -0.061190113 0.13899186
0001e0 58 7c ea 3d b0 01 18 3e c8 98 e8 bc e8 64 0a be
       0.11449498 0.14844394 -0.028393164 -0.13515055
0001f0 f8 20 08 3d 0c 40 1e bd 35 8e 9d be ba c9 82 be
       0.033234566 -0.0386353 -0.30772558 -0.2554453
000200 57 a3 3e 3e df 99 13 3d 1a a6 21 be 5e d1 20 3e
       0.18616997 0.036035415 -0.15786019 0.15704867
000210 12 b2 e8 be 5d 61 e9 be 0f a9 5c be 97 d2 4e be
       -0.45448357 -0.45582095 -0.21548866 -0.20197521
000220 f1 da 97 be d0 af 19 3e c2 a2 06 be f4 65 5b bd
       -0.29659227 0.15008473 -0.13148025 -0.053564027
000230 e0 a1 87 3e 52 fc e9 bc 51 a8 11 3e 3c bf 2c be
       0.26490688 -0.028562699 0.14224364 -0.16869825

sequential/conv2d_6/Conv2D f4 [16, 3, 3, 8]
000000 85 e6 0d 3d 06 94 ad 3d 4e a5 b4 bd 27 84 c5 3b
       0.03464367 0.08475499 -0.08820592 0.0060277167
000010 96 20 90 bd c7 c5 b4 3d 00 e5 59 3d 75 39 64 3d
       -0.07037465 0.088267855 0.053196907 0.055718858
000020 c3 80 8d 3c 9f 78 14 3d 80 f5 01 bb 1f 5c 48 3e
       0.017273312 0.036247846 -0.0019830167 0.19566391
000030 86 38 a1 bd 81 f1 85 3d 2a 06 e1 3d e2 0d 24 bb
       -0.07872109 0.06540204 0.10987504 -0.002503269
000040 25 2c 9d 3d 74 e2 4a 3e 57 ae e7 bd 2e ee f3 bc
       0.076744355 0.19812948 -0.113125496 -0.029776659
000050 19 14 45 3c a6 6c 04 3e 68 a2 93 3c b8 3d 84 be
       0.012028717 0.12932071 0.018021777 -0.25828338
000060 16 e6 34 3e fb c9 0a bd ac 68 1c be bb e7 e4 3d
       0.17665896 -0.03388403 -0.15274304 0.111770116
000070 c6 3c 48 bc b4 69 89 bd e8 14 e5 bc 6c 83 4f 3e
       -0.012221521 -0.067096144 -0.02796407 0.20264977
000080 76 a5 26 be 7e 36 cb bd 46 25 80 3d 7e aa ac 3d
       -0.16274056 -0.09922503 0.06257109 0.08430956
000090 7a 5b b6 3d 41 66 3d be e0 1e 1b bd 74 11 b6 3b
       0.089041665 -0.18496038 -0.03787124 0.00555628
0000a0 62 0f bd 3d cd 17 ff bd 63 42 08 bd 9a d3 19 bd
       0.0923145 -0.124557115 -0.033266436 -0.037555315
0000b0 62 98 3b bd 61 3b 5a bb 7a be 90 3d 68 56 fe bd
       -0.04579962 -0.0033299553 0.070675805 -0.124188244
0000c0 43 7a 3b 3e 4a 33 52 be 62 8c a3 3c 75 c2 36 3d
       0.18308358 -0.20527378 0.0199644 0.044619042
0000d0 b7 54 a1 bd 68 3a df bd 8b 19 24 be a8 3e c5 3d
       -0.07877486 -0.10899812 -0.16025369 0.09631091
0000e0 75 2b b7 3d 03 20 eb bd 98 cd 96 3c 81 fe 19 be
       0.08943836 -0.11480715 0.018408582 -0.15038492
0000f0 25 48 85 be 3a 13 25 be 05 16 03 3e 5c 94 87 3d
       -0.26031604 -0.16120616 0.12801369 0.06620094
000100 7e c4 89 bb c0 a0 44 3e 1e 66 47 bd 9e d2 14 3b
       -0.004204332 0.19201946 -0.04868137 0.0022708545
000110 0e 62 41 3d d5 4c a4 bd 08 67 2a be c5 7c 24 bb
       0.047212653 -0.08022467 -0.16640866 -0.0025098782
000120 53 1e 2f bd 76 01 15 be 48 d8 24 be e0 b4 d7 3d
       -0.04275353 -0.14551339 -0.1609813 0.10532546
000130 d8 e3 17 3e a5 e7 b5 3d e8 ab a3 3c e8 bc 0c be
       0.14833009 0.08882073 0.019979432 -0.13743937
000140 59 97 1c 3e 82 8f d5 bd 9f a6 45 3c 0d eb 9a bd
       0.1529211 -0.104277626 0.012063651 -0.07564364
000150 d2 01 04 3e 80 bb b4 3d 88 3b 27 be 8a 3e 00 3c
       0.1289132 0.08824825 -0.16331303 0.0078274105
000160 36 de e5 bc 43 a4 a8 3d df 8c ee 3d cf 53 11 bd
       -0.02806006 0.082344554 0.11647963 -0.035480317
000170 7c 61 f5 3d d7 8e c1 3c 06 8d d3 3d e3 03 96 bc
       0.11981484 0.023627682 0.103296325 -0.0183124
000180 2a 14 f4 bd 0a 9f 02 bd d4 33 cf 3d 16 c2 08 3d
       -0.119179085 -0.031889953 0.10117307 0.03338822
000190 8f 2d 1f bd 46 3c c9 bc e0 b3 9f bd dd 07 1c 3e
       -0.038861807 -0.024564873 -0.0779798 0.15237375
0001a0 19 8e 74 bc 9e 88 a6 3d 72 9e 00 be 51 1e 02 be
       -0.014926457 0.081315264 -0.12560442 -0.12706877
0001b0 8e 7f 4b bd be 91 e2 bd 4e 4d 23 be 7c d2 df 3d
       -0.049682193 -0.11062954 -0.15947458 0.109288186
0001c0 03 5d 55 bd c0 92 5a be 51 6a b9 bd 95 45 44 bd
       -0.052090656 -0.21345043 -0.09053481 -0.04791792
0001d0 ab 8e 1b 3e 61 f4 1c be 14 7d 64 3d 6a 95 af bd
       0.15191142 -0.15327598 0.055783346 -0.0857342
0001e0 57 73 0d 3e 6a 61 85 3d 55 59 46 be 55 6d f9 bc
       0.1381353 0.06512721 -0.19370015 -0.030447641
0001f0 5e 27 eb 3d 5d f8 03 3e 00 54 29 bc 5d dd d6 bd
       0.11482118 0.12887712 -0.010334969 -0.104914404
000200 1b e2 8d bd ad 86 e1 bd 4b d2 ec bd da 7f aa bd
       -0.06927892 -0.110120155 -0.11563548 -0.08325167
000210 ee 46 90 3d 5a e4 16 be 16 d3 aa bd 12 14 17 be
       0.07044779 -0.14735547 -0.08341043 -0.1475375
000220 b6 c1 39 3d 4f 72 cc 3a 00 bc 81 3d 98 08 51 3d
       0.045350753 0.0015598031 0.06334686 0.051033586
000230 26 dd fe 3d 9f 17 e9 bd e3 e3 28 be 22 a8 b2 bc
       0.124445245 -0.113814585 -0.16493182 -0.021808688
000240 76 9e 9f 3b dd 8a 7a 3d 8f a0 11 3e aa 6b 7e bd
       0.004871185 0.061167587 0.14221404 -0.062114395
000250 ed 1e 46 be e8 93 84 bd 0a ee c5 3d 50 0e d9 3d
       -0.19347735 -0.064735234 0.09664543 0.10598433
000260 5b ce 4e bd cf b0 32 be 4d 49 61 bd 5d df 7a 3d
       -0.050489765 -0.1745026 -0.055001546 0.061248172
000270 9e 17 34 bd 0e 99 98 bd 7b b9 1e 3e a9 d3 8a 3d
       -0.043967836 -0.07451068 0.15500443 0.06778652
000280 c9 a6 c3 3d 7b e4 8b 3e ec c8 75 3b bf 84 e8 bd
       0.09553296 0.27322754 0.0037503792 -0.11353444
000290 ab f3 7e 3c 1e 90 41 3e 76 00 06 be a7 65 25 bd
       0.015561025 0.18902633 -0.13086113 -0.040380146
0002a0 fb d9 9c 3d c1 ba f5 bd 4f 93 df bd 7a 1f fc bc
       0.07658764 -0.11998511 -0.10916769 -0.030776728
0002b0 b6 69 8a 3d a0 8e 0d bd 61 a6 19 3e e9 ad 96 bd
       0.06758444 -0.034559846 0.15004875 -0.073573895
0002c0 96 bb 2e be 9d 67 bc bd 6e 92 01 be 90 c3 5b be
       -0.17063746 -0.0919945 -0.12653515 -0.2146132
0002d0 5b 02 35 bd 4d fb 09 3e 06 be 9c 3d 70 0b e1 3d
       -0.0441917 0.1347477 0.076534316 0.1098851
0002e0 1d 14 e2 bd e1 1c 07 be f8 dd 2f be 21 33 07 be
       -0.110389926 -0.1319461 -0.17174518 -0.13203098
0002f0 5c 66 4d 3a 9d 17 9b 3c d0 e5 46 bc 30 64 99 ba
       0.0007835382 0.018932158 -0.0121397525 -0.0011702832
000300 5e e1 45 3e 7f 96 79 3e 58 8b ec bd cb b5 26 3e
       0.19324252 0.24373816 -0.11550015 0.16280286
000310 00 d7 61 3e 12 98 ec bd 26 ee bc bd 0d 19 39 3d
       0.22054672 -0.115524426 -0.09225111 0.045189906
000320 bc 26 d7 3c 5f 94 0c 3d 18 6e fe 3b 7b 7b e9 3d
       0.026263587 0.034321185 0.007764589 0.11400505
000330 61 20 92 3d 35 5e fa bd e3 e1 1e 3e df 2d 11 be
       0.07135082 -0.12225 0.15515856 -0.14177655
000340 74 e0 8d bd 0b 11 3f bc 71 ea 58 bd a8 fb fe bd
       -0.06927577 -0.011661778 -0.052957956 -0.12450343
000350 22 34 ce 3d 29 78 17 bd 6b 51 22 3e 42 6f a2 3d
       0.10068537 -0.036979828 0.15851371 0.07931377
000360 35 92 e2 bc 31 3d 6e 3b 6d 6c bd bd e6 3c fa bd
       -0.027657608 0.003635239 -0.09249196 -0.12218647
000370 12 62 13 3e 9b 7b 88 3d bb af 14 be 74 c6 18 bd
       0.1439288 0.06664201 -0.14520161 -0.037298635
000380 19 35 51 3c df 90 16 be e9 8b 1c be c1 38 28 3d
       0.012769007 -0.14703701 -0.15287746 0.04106975
000390 70 41 20 3e dc 32 21 3e 90 6a 9e bd 9d bf a5 bc
       0.15649962 0.15742058 -0.07735169 -0.02023297
0003a0 69 e7 dc 3d bc 9f f2 bc 7f c9 a1 bd 72 6f 17 be
       0.107863255 -0.029617183 -0.078997605 -0.14788607
0003b0 93 1e b1 bd 5a 2c 02 3d a0 b0 36 3d 23 30 1c bc
       -0.0864841 0.03178058 0.044602036 -0.009532961
0003c0 ed ff 90 bd a0 c7 1d 3d 5a f5 d3 3d 54 db c8 bb
       -0.07080064 0.038520455 0.103495315 -0.0061296616
0003d0 07 79 d2 3d 4c de 0b 3e 40 6d 94 3c 8f 13 06 be
       0.102769904 0.13659018 0.0181185 -0.13093399
0003e0 fe 20 66 bc 6e e5 74 be f8 5a 4e 3e e4 84 fd bd
       -0.014045952 -0.23915645 0.2015189 -0.123788625
0003f0 d2 ee d2 3c dd 4b 89 be 50 5c 9f 3d f0 2f c6 be
       0.025748644 -0.26815692 0.07781279 -0.38708448

sequential/conv2d_7/Conv2D f4 [32, 3, 3, 16]
000000 b0 1d 0e bc c2 b9 4c bd 29 93 13 be 75 91 b4 be
       -0.00867407 -0.04998184 -0.14411606 -0.35267225
000010 81 22 c0 bc 78 8e 76 bd f4 14 4c 3a 5a 78 0c be
       -0.023453953 -0.060194463 0.00077851047 -0.13717785
000020 95 72 68 3e 85 9d 23 3d db f7 5d 3e 4f 11 66 bd
       0.2269996 0.039945144 0.2167658 -0.05616885
000030 48 52 65 3d 81 07 f8 3b 21 11 8a 3d 7a dc 1b 3e
       0.055986673 0.007569254 0.06741548 0.15220824
000040 1f b9 0c 3e c4 22 6e bd 41 d0 b9 3d a8 69 82 3d
       0.13742493 -0.058138624 0.090729244 0.063678086
000050 48 29 f4 3b 67 f8 56 3d 7c 87 48 3d 62 f4 2a be
       0.00745121 0.05248299 0.048957333 -0.16694787
000060 4e 8a b4 bc 5e f6 d8 bd ac 15 5b bb 02 c8 21 3e
       -0.022038605 -0.10593866 -0.0033429665 0.15798953
000070 bb 48 22 be 57 83 b2 3d c8 2a 3c be 63 41 28 3e
       -0.15848057 0.08716457 -0.18375695 0.16431193
000080 d0 81 24 bd b7 66 c3 3d 77 3f a4 3d b7 90 0b 3e
       -0.04016286 0.09541076 0.080199175 0.13629423
000090 75 44 cc bc 1b 13 14 bd fc 70 2d be ad 3a ad 3d
       -0.024934987 -0.036151033 -0.16937631 0.08458457
0000a0 0f f9 21 3e 13 b8 9c 3d 4e a2 03 be ba d3 c7 3d
       0.15817665 0.07652297 -0.12854883 0.097571805
0000b0 21 37 10 3e 4a 58 14 3e 70 f2 12 bd e1 72 95 bd
       0.1408353 0.14486805 -0.035875738 -0.07297302
0000c0 d1 95 ff bb 88 08 28 3c 29 9a 05 3e c3 df c9 3d
       -0.007799842 0.01025594 0.13047089 0.09857132
0000d0 e7 71 e4 bc 41 da 50 3c df ea 12 3c 36 38 15 3e
       -0.027886344 0.012747348 0.00896713 0.14572224
0000e0 52 f4 fd bd 53 33 a2 bd 74 7b d0 bd 8c de 0e bd
       -0.12400116 -0.079199456 -0.10179797 -0.034880206
0000f0 ee 57 87 bd c8 6e df 3d 35 39 89 bc 7d 18 e3 3c
       -0.06608568 0.10909802 -0.016750911 0.027721638
000100 de 2c 82 3d de 91 b6 bd 07 cb f2 bd 92 6d d7 3c
       0.06356214 -0.08914541 -0.11855131 0.026297364
000110 a0 cc 07 3d 35 bb c2 bc 8b 4f 98 3c f9 69 08 be
       0.03315413 -0.023770908 0.018592617 -0.13321675
000120 e8 06 91 bc 75 7c d7 bd 03 96 23 3d de 0d a9 bb
       -0.017703488 -0.10521785 0.039937984 -0.005159124
000130 43 64 1e 3d b1 97 94 bb 66 c0 e8 bd 11 29 06 3e
       0.038669836 -0.0045346846 -0.11364822 0.13101603
000140 1d ba 93 3d b1 c0 30 be 96 2e e5 bb d0 43 d0 bb
       0.07213233 -0.17261006 -0.006994079 -0.00635574
000150 76 a8 39 3d ad 41 8b bd 6d 8a 71 3d 56 d5 de 3d
       0.045326672 -0.06799636 0.058969904 0.10880534
000160 26 08 3a 3c f3 54 1b be 31 34 1f 3e 93 c1 09 3c
       0.011354482 -0.15169124 0.15547253 0.008407968
000170 0c 74 11 3d b0 8d 9e bd 1c 14 31 bd 61 d6 a1 bd
       0.03551106 -0.077418685 -0.04323207 -0.07902218
000180 56 1d a0 3d 8f f6 0d bd 26 86 e6 3c 33 b2 13 be
       0.078180954 -0.034658965 0.028140139 -0.14423446
000190 15 55 a3 3d 77 76 af bd eb ad 11 3e 42 e6 96 bd
       0.079752125 -0.08567517 0.142265 -0.07368137
0001a0 47 52 d9 3d 20 be 0b be 57 d9 7e be 0d 96 90 be
       0.10611396 -0.13646746 -0.24887596 -0.2823948
0001b0 36 03 12 bd 69 18 b7 bd d4 ad e4 bc f1 32 d5 be
       -0.035647593 -0.08940203 -0.027914919 -0.41640428
0001c0 4b fa ae bb 71 43 1b 3d c3 7a d3 bd 3a a3 f6 3b
       -0.005339896 0.037906114 -0.10326149 0.0075267823
0001d0 20 69 ba 3d fd b8 8e bd da 78 ad 3c 07 42 93 3d
       0.09102082 -0.069688775 0.02117579 0.07190328
0001e0 12 99 36 3c c5 5f b7 3c 10 c7 b6 bd 53 94 2f b8
       0.011144893 0.022384534 -0.08924687 -4.186139e-05
0001f0 fb d3 3f 3e 67 ab 47 3c 71 51 08 be a8 13 10 bd
       0.18733208 0.012186862 -0.13312317 -0.035174996
000200 c6 62 3a bd b3 5d 69 3b 1b d9 ab bd db a1 9e bd
       -0.045504354 0.0035608828 -0.08391019 -0.07745715
000210 41 5f 93 3d 06 4a 53 bc 98 a3 38 bc 73 ca e2 bd
       0.071959026 -0.0128960665 -0.011269473 -0.110737704
000220 e9 a0 60 3e 6c ed ce bc 41 e4 0b 3e 5b 7f 45 be
       0.21936382 -0.025259696 0.1366129 -0.19286864
000230 d9 e2 7c bd 2d 1f b1 bc 18 eb e5 3c 22 92 0c bc
       -0.061739776 -0.021621311 0.028066203 -0.008579763
000240 3b 84 b6 3d a1 16 6e bc 29 08 fe 3d 36 30 d4 bd
       0.0891194 -0.014531762 0.124039 -0.10360758
000250 c7 e3 c0 3d 37 9d 9b 3d 88 06 ab bd ec 27 c7 bc
       0.09418445 0.07598346 -0.08350855 -0.024311028
000260 08 aa a7 3d b3 e7 95 bb e0 53 4d 3d d5 e0 ad bd
       0.08186728 -0.00457474 0.050128818 -0.08490149
000270 67 5d 73 bd cf ce d6 3d f3 1f e7 3d 06 22 a9 ba
       -0.059415247 0.10488664 0.11285391 -0.0012903817
000280 b0 d2 3a 3d e7 a3 57 3d fe 61 c5 bd 00 70 72 bd
       0.045611084 0.052646544 -0.09637831 -0.059188843
000290 68 f8 5b 3c ff e2 23 bc 02 71 1e 3d 2e d1 a6 3d
       0.013425924 -0.010002851 0.03868199 0.081453666
0002a0 56 ed e4 3d 09 2c b4 3d 6f f0 01 bd 1c e7 a9 3c
       0.11178081 0.087974615 -0.031723436 0.020740084
0002b0 6b 6a 51 bd 4c 93 a7 bd 5d 12 2c bd be 5e 4d bd
       -0.05112688 -0.081823915 -0.0420097 -0.05013918
0002c0 03 ca 23 3d 99 0d c8 3d 1c f7 00 bd ac 54 6d 3d
       0.039987575 0.097682185 -0.031485662 0.057942078
0002d0 d8 27 95 3d 47 67 08 3d ef 49 c2 bd 6f 9f ca 3d
       0.0728299 0.033301618 -0.09486758 0.09893691
0002e0 d3 42 d3 bc 40 e2 e2 3c 5a 54 ac 3d ef 73 13 3c
       -0.0257887 0.027695775 0.08414526 0.008999809
0002f0 c2 39 45 bd 66 b8 c9 3c c6 d1 8b bd ca d1 1a 3c
       -0.048150785 0.02462406 -0.068271205 0.009449432
000300 24 e8 7e 3a 3f b2 a6 3c 99 c1 4b bd 23 16 83 3c
       0.00097239227 0.020348666 -0.049745176 0.016001767
000310 ec 93 9d 3c 4a bf b9 3c 0a 6d 24 3d 51 ac 8d 3d
       0.019235574 0.022674222 0.04014305 0.06917632
000320 15 48 0f bd 10 d9 2f 37 91 c4 86 bc 39 c2 af bd
       -0.034980852 1.0481352e-05 -0.016451152 -0.08581967
000330 bd b2 7e 3c 40 65 aa 3d 22 e7 9b bd 6b c2 a3 bb
       0.015545544 0.08320093 -0.076124445 -0.0049975417
000340 6e 36 d3 3d 86 c9 8f 3d 8f 7f cf bd db 88 69 3e
       0.10313116 0.070208594 -0.10131752 0.22806112
000350 cc a7 55 3d 5b b1 ac bd 51 f8 89 3d 99 f0 19 bd
       0.052161977 -0.08432265 0.06736816 -0.037582967
000360 d4 1b 63 bd 44 c3 4e 3d 25 70 8a bc 1a d0 2a bc
       -0.05544646 0.05047919 -0.016899178 -0.010425592
000370 bd 79 c5 3c 3d 31 26 bd 3d c4 11 3b 98 71 fb bd
       0.0241059 -0.0405743 0.0022242211 -0.12277526
000380 91 c4 ce 3d 4c 1e 82 3d b3 c2 c2 3d 80 db 95 bc
       0.10096086 0.06353435 0.09509792 -0.018293142
000390 6e fb 8b bd d3 ef 7f 3d a4 66 46 3d 94 6f db 3d
       -0.06835066 0.062484574 0.04843773 0.10714641
0003a0 c5 79 43 3d 9f f9 da 3d 6f 7d e5 3d ed 08 f3 3c
       0.04772355 0.10692143 0.11205565 0.029667342
0003b0 67 5a 12 be 55 63 03 3d 54 2d eb 3d ba 1e ef bd
       -0.14292298 0.032077152 0.11483255 -0.116757825
0003c0 50 46 8d bb 61 d8 97 bc 11 c8 77 3d ea 09 04 3e
       -0.0043113604 -0.018535795 0.060493533 0.12894407
0003d0 82 d5 33 bd 19 24 6a bd 6d ba 0f be 34 e0 b9 bd
       -0.04390479 -0.05716333 -0.1403596 -0.090759665
0003e0 16 5d 12 3d ee fc ac 3d 9d ec 6a bb 00 78 b8 3d
       0.035733305 0.0844668 -0.00358466 0.09007263
0003f0 8d 37 0a bd 82 f8 7f 3d b3 5d 21 bd f0 44 86 bc
       -0.033744384 0.062492855 -0.039396 -0.016390294
